model/zen-net-224.onnx (onnx, 427639 bytes, 14 tensors)

model/dense/MatMul/ReadVariableOp:0 f4 [216, 3]
00000000: d4ea bd3e d70a c03d e9d4 82be 70e5 1a3d
00000010: 769b 4fbc 9b56 b33c 7ca5 3a3e d292 3d3e
00000020: 2903 92be d454 28bd 1bc4 8b3d 445d f03d
00000030: d657 2d3e 944c 673e 620f 51be c039 73be
00000040: b9bc 23bd fa37 973e 80bf 9a3e fb78 7ebe
00000050: dc73 9a3d 0d8b 15be 4e5e 603d caf0 883e
00000060: 57cd 6abe e0aa 783e 844f 11be aa5c e7bd
00000070: 9a50 bb3d 11c2 213c 75d7 70be e0e8 2fbe
00000080: 0ba1 963d fcac 13bd de5c 31be 1130 2f3e
00000090: 921d 303e a80a 78be 3bd0 8dbe e73c 08bd
000000a0: dc6c 233e 44fb a8be feca e43d 7cbc 473d
000000b0: 73c8 a8be 469a f63d fca9 9dbe e932 693e
000000c0: f024 6ebe 9d13 d73d 7ebe f8bd da4a 4dbe
000000d0: a509 6b3e 5f34 a0bc e34c 8fbe d0bd e43d
000000e0: 018a a8bd 2987 80be 4cf1 b33d 2738 223e
000000f0: 5f2b f0bd 66be f5bd 9569 243e b11a 38be
00000100: 6037 e43d d3ac a3bd 0642 183e d6e6 fbbd
00000110: 24bd 903e ed40 833d 4ade de3c bfda 8e3e
00000120: 8519 263d d0bf fb3d 596e 293e 4469 f53d
00000130: 0c24 a3be 7c4b 4e3e 83ab c23e fe94 02bd
00000140: 0fb9 c1bd 3ea7 6abe a090 b8bd 9b4b 933e
00000150: 75fd e43d 384d 8fbe 1c13 06bd 3077 13be
00000160: 1d3b 453e d5a0 0b3e 6e03 35be 29c0 15be
00000170: d4ad 3f3e 6719 a83e 4bd7 98bd 1bcb 4cbe
00000180: 115a 6dbe 8060 31bc 367b 433e fe63 7dbe
00000190: 0cbd 37be 37d0 543e a6f6 623e f2b2 833e
000001a0: acbb e6be 76c5 133e 96a2 4e3e cb35 b9be
000001b0: 29be 14be 7d9a 533e d041 9abe c261 c2bd
000001c0: f760 81bd 71dd 5e3e 995c 23be 35b8 ec3c
000001d0: abf6 0dbe d894 85be c290 093e bf67 0abe
000001e0: 2332 81be 4530 29be c2bf 7a3e d25c 3cbd
000001f0: 94ad 973e e532 59bc d3fd ebbd ffbf 313e
00000200: b275 83be 0b64 55bd 4f7a f43d 356c e4be
00000210: 7c06 c33d c80c 96be 7eaf 1f3e d8ce 6dbe
00000220: 9e7f 083e 1f7d 373e 2a2c 2c3c b23d 18be
00000230: eee3 8e3e 60be 843e d048 29be e178 3b3e
00000240: f2fb 7b3e 23e4 0fbe 3048 db3d 70a4 e13d
00000250: f3d9 56be f4f3 6fbc 5ddc 253e 8d1d d83d
00000260: 7728 0cbf 49cc a03e 06e2 083d 869b eabd
00000270: 4536 2e3e 645c 5bbe 25d2 61ba 30df 3a3e
00000280: d95b c8bd 9183 363e dd48 a83e eac5 4fbe
00000290: 5539 5dbe 19a8 91be 58ce 9b3d 61ff 173d
000002a0: 3aeb c0bd 6f7f 753d e9d6 63be 058e d3bd
000002b0: 2989 5c3e 2838 a4bd e424 393d 1a40 a9bd
000002c0: a8a9 663e 29d8 703e 9972 dd3d 22a7 bfbd
000002d0: 88c6 2bbe 5d0e 3e3e 53a5 a93c 86c9 c6bc
000002e0: f356 5ebe e4a1 983e 6d28 88be 516a a13d
000002f0: 651f 2c3e 69ee 61be 234e e03b 8644 273e
00000300: 398c 3bbe 9563 d83d aa03 f23d e499 a8bd
00000310: c099 343e c1c8 83bc fde5 00be d91e 5a3e
00000320: 3adc 23be 92ed ab3e 318b 76be 1a3c 883d
00000330: fa0e 1bbe 0dd8 d6bd 39ac 523e 065f 33bd
00000340: 5bb8 aabd 9d25 103e 1572 6c3e bd10 06be
00000350: efaf 8ebd 46c9 8dbe 31ac 723d 1e8d 1fbd
00000360: fbab 8b3e 88f5 1c3e 7f0b 0bbf 7176 bd3d
00000370: cadd 653d 5fdc e0be 8ed7 87bd 6ba9 ebbd
00000380: e970 573e ece9 c33e 91d7 d5bd 08c3 9dbe
00000390: 36e9 74be ced5 363e e135 32be d0b1 46bc
000003a0: 93e3 b53d 52eb 23be 319a d93d 531f 0cbe
000003b0: bed7 273e e295 38be 73e9 c03d 5d48 a6bd
000003c0: 3120 01be a23e 973e 0416 0fbe a8a7 963e
000003d0: 6dc3 053e 68d2 f8be 5156 02be 1123 273e
000003e0: adad ab3d 9579 a5bd 5a4f 39be 884d 683d
000003f0: 2360 32be 66fc 49bc 8eb7 803e ed02 813e
0.37093222 0.093770675 -0.25553063 0.037816465 -0.012671342 0.021891883 0.1822719 0.18513039
-0.28518036 -0.041096523 0.068245135 0.11736539 0.16928038 0.22587806 -0.20416024 -0.23752499
-0.0399749 0.29534894 0.30224228 -0.24850838 0.0754163 -0.14603825 0.054777436 0.26746207
-0.22929893 0.24283934 -0.14190489 -0.11296971 0.09146233 0.009872929 -0.2351969 -0.17178679
0.07354935 -0.036053643 -0.17320582 0.1710818 0.1719878 -0.24222815 -0.2769793 -0.033261206
0.15959495 -0.330042 0.1117153 0.048763737 -0.3296543 0.12041144 -0.3079375 0.22773327
-0.23256278 0.10501788 -0.121457085 -0.20048085 0.22952898 -0.019556222 -0.27988347 0.11169016
-0.08229447 -0.2510312 0.08786258 0.15841733 -0.117270224 -0.11999206 0.16055901 -0.17978932
0.111433744 -0.07991948 0.14868936 -0.12299888 0.28269303 0.06408868 0.027205605 0.27901265
0.04055168 0.12292445 0.16546 0.119829684 -0.3186344 0.20145983 0.38021478 -0.03188037
-0.09459125 -0.2291536 -0.0901196 0.2876862 0.111811556 -0.279886 -0.032733068 -0.14400935
0.19260831 0.13635571 -0.1767709 -0.14624085 0.18718654 0.3283188 -0.07462939 -0.19999354
-0.23178889 -0.01082623 0.1908997 -0.24745175 -0.1794321 0.20782553 0.22164401 0.25722462
-0.45065057 0.14430794 0.20179209 -0.36173853 -0.14525665 0.20664401 -0.30128336 -0.09491302
-0.06317323 0.2176416 -0.15953292 0.02889643 -0.13863628 -0.2609012 0.13434127 -0.13516138
-0.25233564 -0.1652232 0.24487212 -0.045986958 0.29624617 -0.013256763 -0.115230225 0.17358397
-0.25675732 -0.05209736 0.11937391 -0.44613805 0.09522721 -0.29306626 0.15594289 -0.23223436
0.13329932 0.17918824 0.010508576 -0.14867285 0.27908272 0.25926495 -0.16531682 0.1830783
0.24607828 -0.14051871 0.10707128 0.11017692 -0.20981579 -0.014645565 0.16197343 0.10552511
-0.54749244 0.31405857 0.033418678 -0.11455445 0.1701289 -0.21421963 -0.0008614383 0.18249202
-0.097831436 0.17823626 0.3286809 -0.20290342 -0.21603902 -0.2844856 0.07607716 0.037108783
-0.09419866 0.059935983 -0.2224995 -0.103298225 0.21536697 -0.080185235 0.045201197 -0.082641795
0.22525656 0.23519959 0.108128734 -0.0935805 -0.16774952 0.18560167 0.020708716 -0.024266016
-0.21712856 0.29811013 -0.26593342 0.07881606 0.16808851 -0.22063603 0.006845252 0.16334733
-0.1831521 0.10565869 0.11817105 -0.08232477 0.17636776 -0.016086938 -0.12587734 0.2130083
-0.16001979 0.3357969 -0.24076535 0.066520885 -0.15142432 -0.10490427 0.2057351 -0.043791793
-0.08335944 0.14076848 0.23090394 -0.13092323 -0.069671504 -0.27692622 0.059246246 -0.03895294
0.27279648 0.15328038 -0.54314417 0.092511065 0.056119718 -0.4391813 -0.06632911 -0.11506923
0.21039166 0.38264406 -0.10441507 -0.3081286 -0.23917088 0.17854998 -0.17403366 -0.012127355
0.08881297 -0.16007736 0.10625113 -0.13683824 0.16390893 -0.18025926 0.09419527 -0.08119271
-0.12609936 0.29539973 -0.13973242 0.29424787 0.1306283 -0.48598027 -0.1272824 0.1632197
0.083827354 -0.080798306 -0.18096676 0.056714565 -0.17419486 -0.012328243 0.2514004 0.25197545

model/dense/BiasAdd/ReadVariableOp:0 f4 [3]
00000000: 2dc6 4dbd 97e5 fdbb 6164 4f3d
-0.050237823 -0.0077483165 0.05063284

model/conv2d_5/BiasAdd_weights_fused_bn f4 [216, 72, 1, 1]
00000000: c0e4 f2bd 9a77 ab3e 2cd7 d33d 0353 cf3d
00000010: 1828 11be c256 66bd f192 463b d0e4 97bc
00000020: 487b d43d f237 3abe 1554 753e 261b 0f3e
00000030: 1008 b93d a940 cebd 895e c13d 6cc2 06be
00000040: 754d 9f3d b75f ca3d a818 413e 24b3 6fbe
00000050: e6c7 44bd 820d 193e 1f8e 87bc 1693 843e
00000060: d59b 74be 5316 92be 93fe ffbd 2c0b ecbd
00000070: df97 2a3d 9e27 37be b7f6 093e dd89 75bd
00000080: 5bcd 14be 5364 e23e 394d 7abd f878 0abe
00000090: a481 423e d4fd 0b3e 0bfd 073e bccf 9b3e
000000a0: 92aa 9c3c 50ac 23be 92d7 8b3d ea17 c23c
000000b0: 38c6 09bb a183 d13c 8c18 363e 0b66 12be
000000c0: 0e5e 853e 6634 54be 59d0 b3bd 997e a53e
000000d0: ffe4 693d f961 b53d d1cb d03c 6a1e 5dbe
000000e0: c71a 33be ffe2 8e3e 6033 25bd f277 2ebe
000000f0: 183b 98be b29a a43d 9bff 513d b0bd 47be
00000100: 63e5 ea3d 1780 15be c1c1 92be a717 a23c
00000110: 5855 7e3e c11f aebd 455e 25bc 3577 65bd
00000120: 000a 273e e06f 53be 10f8 9d3d 9532 46bd
00000130: 0fb8 d7bd c965 803d 4a20 77be 12e3 85be
00000140: b5f5 c63c 93ac cd3c 6e35 ce3d 31ba 7dbb
00000150: b94c 743e ec52 19bd 3d9d 243e a62b 343e
00000160: 41e4 3dbe f770 a5bd 10fd b5bd 233c e7bd
00000170: 0c17 a73d d212 25be 929f 86be 92e2 8abe
00000180: 022e 86be 603a 183e 0e22 64bc aa6a 8a3d
00000190: 6393 36be e1a1 28be 5f6a 3ebe 8246 c1bd
000001a0: 61b3 97be bd75 48be 7340 1a3e dd03 1a3e
000001b0: bf98 32be 59e1 4bbe 08f0 9abe 0db3 8e3d
000001c0: e920 e2bd 2f9e dfba dc90 a0bd 9119 393d
000001d0: 5a55 07be 3e43 6f3e 16a8 acbd 2fb3 7f3d
000001e0: d0ae 81be 016d 0c3c 0dbe 0b3e fed9 4ebe
000001f0: 912e fcbb e544 733d 60bd 9e3d 117f 0ebc
00000200: 0a40 b0bd 0bb2 a73d 93ac 1dbe de9b df3d
00000210: 124b 273e 3e14 e43d 85dc 803e 65ec c6bd
00000220: 0534 323d 4d58 b73c d573 04bd 0a87 853d
00000230: 5228 49be 0ee2 053e 1e13 00be 29ec 333e
00000240: 2df3 54be eb0a 933d 05b3 d4bd 094e d7be
00000250: 343f a9bd 1c56 143d 5c3f 0cbd 8b36 503e
00000260: 5f78 55be 0416 dfbd 6b99 5cbe 2334 92bc
00000270: 51dd b83d e263 593d 20bf 84be ee25 1abe
00000280: 6292 07be f7f0 14be a7d6 89be d7c9 073e
00000290: c636 4dbd 1e0d 0abd 5326 6b3d 5950 693e
000002a0: ecd1 9e3d 73d4 05be 85d3 e13d c3af 543c
000002b0: a729 52be 02bb e2bd 88ec b63d 6c41 fdbd
000002c0: 9a89 d33d 3bf6 833e 2a9a b4bd 9551 473e
000002d0: f436 9dbd e4aa 7e3e 9de0 333e ffe4 66be
000002e0: a400 a83e cb27 8cbe 50b8 0e3e 7d48 473e
000002f0: 6922 cfbe d527 443e b0b3 2f3e 3333 bc3d
00000300: 5574 243e 71e2 adbe a904 323e a7db f7bd
00000310: a0d1 9f3e a521 50be d961 4bbe 538a b93d
00000320: 0243 cf3c e8bd 083f 0196 c83d a257 ffbd
00000330: ba18 2ebe 7a86 35bd 39ac 723e e420 b4be
00000340: 88a8 9f3d b06e 55be 0b41 71be d913 083e
00000350: ed40 8d3d f694 7dbd 7dec fbbd aa88 ddbc
00000360: f8ba 00bd 9eea 263d 0276 0d3e a0ff 353e
00000370: 6581 d6bd 5243 7f3e e5f7 193e ee90 69bc
00000380: ad78 f4bd 470b ff3d 53de 5ebe c2dc 8bbe
00000390: 8c53 9fbc 526c b23d 2715 983c da73 86be
000003a0: 6d8b 0d3a 6e73 cc3d ac56 88bd 5f50 79bd
000003b0: 7621 2dbe 4d31 8a3d 819e 573d 89e7 983d
000003c0: d6c5 64be 3b49 323e 1a88 21be 8f69 cc3d
000003d0: 1a82 46be 10d6 babe 4a2b ec3d 3b31 223e
000003e0: 6d16 8cbe c23c ce3c ac0f c43d 4e94 4b3e
000003f0: 66ff 1fbe a0bf a53e 21a2 36be a5f4 c13c
-0.11860037 0.33489686 0.10343775 0.10123255 -0.14175451 -0.056235082 0.0030299986 -0.018541723
0.103750765 -0.18185404 0.23957856 0.139752 0.09034741 -0.10070927 0.09441859 -0.13160104
0.07778446 0.098815374 0.18857062 -0.2340818 -0.0480422 0.14946559 -0.01654726 0.25893468
-0.2388757 -0.28532657 -0.12499728 -0.11525568 0.04164874 -0.17886207 0.1347302 -0.05994593
-0.14531462 0.44217166 -0.0611088 -0.13522708 0.18994766 0.13671046 0.13280122 0.30431926
0.019124303 -0.15983701 0.06828226 0.023693044 -0.0021022689 0.02557546 0.17782801 -0.14296739
0.2604832 -0.20723113 -0.087799735 0.3232315 0.057103153 0.088565774 0.025487812 -0.21593633
-0.17490683 0.2790756 -0.0403322 -0.17037943 -0.29732585 0.08037318 0.051269155 -0.19505954
0.11469533 -0.14599644 -0.28663447 0.019786669 0.24837244 -0.0850215 -0.010093276 -0.056021888
0.16312408 -0.20648146 0.0771333 -0.048388083 -0.10533153 0.06269414 -0.24133411 -0.26149803
0.024287084 0.025106704 0.10068785 -0.0038715715 0.23857392 -0.037432596 0.16075607 0.17594776
-0.18544103 -0.08078187 -0.088861585 -0.11290767 0.08158693 -0.1612046 -0.26293617 -0.27125984
-0.26206976 0.14866018 -0.013924135 0.06758626 -0.17829661 -0.16468002 -0.18595265 -0.094372764
-0.29629043 -0.19576164 0.15063648 0.15040536 -0.1744108 -0.19910182 -0.30261254 0.06967745
-0.11041433 -0.0017060692 -0.0784013 0.045190398 -0.13216153 0.23365495 -0.08430497 0.062426742
-0.25328684 0.00857091 0.13646717 -0.20200345 -0.007695981 0.059391875 0.07750964 -0.008697287
-0.086059645 0.08188256 -0.15397863 0.10918401 0.16337231 0.111366734 0.25168243 -0.097130574
0.04350664 0.022380972 -0.03233703 0.06519897 -0.19644287 0.13074514 -0.12507293 0.17570557
-0.20795889 0.07179817 -0.10385708 -0.42051724 -0.08264008 0.036214933 -0.03424011 0.20333306
-0.20846699 -0.10892871 -0.215429 -0.017847126 0.09026588 0.05307377 -0.25927067 -0.15053532
-0.13239434 -0.14545046 -0.2692158 0.1326059 -0.050101064 -0.033703916 0.057409596 0.22784556
0.07754883 -0.13069324 0.11026672 0.012981358 -0.20523702 -0.11070825 0.089318335 -0.12365994
0.1032898 0.25773796 -0.08818467 0.19464715 -0.07676497 0.24869877 0.17566152 -0.22548293
0.3281299 -0.2737411 0.13937497 0.19461246 -0.4045594 0.1915582 0.17158389 0.09189453
0.16060002 -0.33961824 0.1738459 -0.12102442 0.3121462 -0.20325334 -0.19861545 0.090595864
0.025300507 0.53414774 0.09794236 -0.124678865 -0.1700162 -0.0443177 0.2369851 -0.35181344
0.07795817 -0.20843005 -0.23559968 0.13288821 0.06897149 -0.06190964 -0.12300966 -0.027042706
-0.031428307 0.040751092 0.13814548 0.17773294 -0.10473899 0.24928024 0.1503597 -0.014255745
-0.119370796 0.12453323 -0.21764497 -0.27316862 -0.019449018 0.08712067 0.018564774 -0.26260263
0.0005399499 0.09982954 -0.06657156 -0.060867663 -0.16907296 0.06747685 0.052641395 0.07466037
-0.22341093 0.17410748 -0.15774575 0.09981071 -0.19385567 -0.36491442 0.11531694 0.15839092
-0.2736086 0.025175456 0.09573302 0.19880792 -0.1562477 0.3237276 -0.17835285 0.023676226

model/conv2d_5/BiasAdd_bias_fused_bn f4 [216]
00000000: aef3 99be 4e41 b73e 440c e63e 0087 e8bc
00000010: fcfe e6be e6cc d7bd 8614 6bbe 501c f43e
00000020: be6c 31bf 2827 a23e e85e 3d3f 50c2 923f
00000030: d448 5fbe 2082 013d 7804 adbe 8286 4e3e
00000040: f54a c3be b495 353f 80b0 2a3e ac89 5d3d
00000050: 8ed9 b1be d2d5 d3bd d6b8 4ebe d85c cdbd
00000060: b66f af3e 4a90 08be ef2c 9bbe 4047 503f
00000070: 4de7 9bbe e17f 803f ea15 6c3f 390b 7ebe
00000080: ede2 cdbd bf1b c83e 2d01 8ebd 50af f83b
00000090: 400b 883b 2694 f7be 3888 5d3f f1ea 26bf
000000a0: d781 4f3f be36 4ebf fc93 e83d 4904 28bf
000000b0: e875 9b3e 3448 9e3f f1af 953e f0a4 6bbe
000000c0: 3a31 c1be fda1 c1be 3bed 4dbe 34dd 82bf
000000d0: 9460 86bc 0038 8bbd 9e01 d4be ebd2 6fbf
000000e0: eba4 063f d292 083f cc70 393f 9e5f 94bd
000000f0: 112f 15bf 1940 d93e f1ca c53e 18c6 5d3f
00000100: 7b8a d6be a209 ff3e f6b1 b53c d8ea bebe
00000110: e08b bd3b aa12 89be 9dea 42bf c04a 64be
00000120: 901d e4be c3d9 963d d130 75bf 85c3 4dbf
00000130: eb30 d53e 0924 0e3f 8fff 9abd fab8 643e
00000140: c4aa 74be 40e1 ca3a bf03 03bf b20e 463f
00000150: 47b7 853f b79d 56bf b405 003f 41b0 e6be
00000160: 314e 6f3e 174d 453e a582 00bf 8d3f 023f
00000170: 66c5 b03e dd37 863f 45a5 6b3e f967 70bf
00000180: e011 323e eef1 a43e 8fb3 31bf a815 e0be
00000190: 0355 56be 622b c5be 41a3 3abd debe 3bbf
000001a0: 08e1 4cbe 3b6a fdbe 9734 bbbd fe4c 57bf
000001b0: 8e5e 63bf 8e45 43be 6c1a 7abf baf6 89bf
000001c0: 26f5 50bf eba9 fcbe 500c 9e3f 5ca9 123e
000001d0: af9b 233f fccc 9f3d 7468 60bf a084 f53d
000001e0: 8e08 5cbf ced5 9dbd d642 943d a6dd 53bf
000001f0: ff3b 28bf cde1 7dbe b176 44bf 5d5f 683e
00000200: e9b4 553e 8bc1 7c3f 37c3 9cbe 24fc 84bf
00000210: 5a3e 3abf de43 ca3e f3e4 c63e 063e 37bf
00000220: 9a53 cd3e 22e2 86bf a57e 913e 2553 b3be
00000230: e084 a73d 2ad8 013f 3ed3 423f 2db8 fbbe
00000240: da89 18bf 1f81 d9be a1e8 cfbe f63d d73e
00000250: 6e36 333e 508b 3bbe 675d 07bf 6cda ed3e
00000260: 086c f03d 8a84 69bf 3572 923f 0fff 0f3f
00000270: 2421 85be b147 bebe be9c d6be 4d27 1c3f
00000280: c288 d0bd e89b 5fbf e11a f5be 8ba1 8ebe
00000290: 98a9 413f 2052 21be 2464 38be 024b a83e
000002a0: 2c6f bfbe 8596 b6be 135e 82bf 4785 d5be
000002b0: a01d c1bc 446f 2dbf c250 93be 00e0 673f
000002c0: 39f7 783f 680c b53e 2289 62bf 0a45 d13e
000002d0: 42ab 363e 0e24 563f 9bf7 d2be 34c3 9c3d
000002e0: 36dd e13e e8a4 0b3d 0f2b 083f aca5 a3bd
000002f0: 7bb1 49bf 990a f63e 1a58 a73d 4fa9 0dbf
00000300: 0d94 c8be 2b59 b73d 8927 c63e 5aa0 08bf
00000310: 2259 b93e cc56 c7bf 3137 9c3f 5ce5 d4be
00000320: 874c 34bf 95ed e43e df13 0dbf 8769 c9be
00000330: e555 523f f372 5bbf 886c 7dbf 5555 843f
00000340: 0673 0ebf 81c9 10bf 1700 b2be 16e1 fb3e
00000350: 0010 06bf 32bc 513f bf7d afbd 5f97 1abf
-0.30068725 0.3579201 0.44931233 -0.028384686 -0.45116413 -0.10537128 -0.22957048 0.4767785
-0.6930655 0.316705 0.7397294 1.146555 -0.21805125 0.031618237 -0.33792472 0.20168498
-0.38143125 0.70931554 0.16668892 0.054086372 -0.34736294 -0.10343517 -0.20187697 -0.10027474
0.34264916 -0.13336292 -0.3030772 0.8135872 -0.30449906 1.0039026 0.9222094 -0.24808969
-0.10053048 0.3908367 -0.06933818 0.0075892583 0.0041517317 -0.48355216 0.8653598 -0.6520224
0.81057495 -0.8055228 0.11356351 -0.6563154 0.30363393 1.2365785 0.29235795 -0.23012137
-0.3773287 -0.378189 -0.20110027 -1.0223756 -0.016403474 -0.067977905 -0.41407484 -0.9368121
0.52595395 0.5334903 0.7243774 -0.072448 -0.5827494 0.42431715 0.38631395 0.8663039
-0.41902527 0.49812037 0.022179585 -0.37288547 0.0057844967 -0.26772052 -0.7613924 -0.2229414
-0.44553804 0.073657535 -0.9577761 -0.80376464 0.41638884 0.55523735 -0.07568275 0.22336188
-0.23893267 0.0015478507 -0.5117759 0.77366173 1.0446557 -0.83834404 0.500087 -0.45056346
0.23369671 0.19267689 -0.5019935 0.5087822 0.34525603 1.0485798 0.23012264 -0.9390865
0.17389631 0.32215828 -0.6941461 -0.43766522 -0.20930867 -0.3850966 -0.045565847 -0.73338115
-0.20007718 -0.4949511 -0.0914089 -0.84101856 -0.88816154 -0.19069502 -0.97696567 -1.077842
-0.81624067 -0.49348387 1.2347507 0.14322418 0.6390943 0.078027695 -0.8765938 0.11988187
-0.85950553 -0.07706796 0.072393104 -0.82760084 -0.65716547 -0.24793167 -0.7674361 0.22692628
0.20869793 0.98732823 -0.30617687 -1.0389447 -0.7275139 0.39504904 0.3884655 -0.71579015
0.40102845 -1.053776 0.28416935 -0.35024372 0.08179641 0.50720465 0.7610358 -0.49163952
-0.59585345 -0.42481324 -0.4060717 0.4203946 0.17501232 -0.18314862 -0.52876896 0.46455705
0.11739355 -0.91217864 1.1441103 0.56248564 -0.26001847 -0.3716407 -0.4191646 0.6099747
-0.101823345 -0.8734727 -0.4787207 -0.27857623 0.75649405 -0.15753984 -0.1800695 0.32869726
-0.37389505 -0.35661712 -1.0184959 -0.41703245 -0.023573697 -0.677479 -0.2877255 0.9057617
0.9725223 0.35361028 -0.884905 0.40872985 0.17838767 0.83648765 -0.41204533 0.076544195
0.44114083 0.034092814 0.531907 -0.07990584 -0.7878644 0.4805496 0.08171101 -0.5533647
-0.39175454 0.08952554 0.38702038 -0.5336968 0.36200815 -1.5573363 1.2204343 -0.41581237
-0.7042927 0.4471251 -0.55108446 -0.39338323 0.82162315 -0.85722274 -0.9899373 1.0338541
-0.5564426 -0.5655747 -0.34765694 0.49195164 -0.52368164 0.8192779 -0.08568906 -0.60387224

model/conv2d_4/BiasAdd_weights_fused_bn f4 [216, 72, 1, 1]
00000000: 57d3 e33e 9ed7 8d3d dc0a 1e3e e145 50bf
00000010: 5417 923e 4660 10be 9cf6 123f 52ca 29be
00000020: ae5b 7c3e 8fdf 123f 6e61 f0be 60c8 15bf
00000030: 47a3 46be cf63 aebe 5e39 05bf 59a1 babe
00000040: 7e15 9c3e a0c3 453e 6dc5 373f 5e5f dfbe
00000050: d8df 383f 6db3 0a3f bd4b 1ebe 3e6c c9bd
00000060: a6d5 8ebe 9302 58bf e45a 8b3e 4a31 6e3f
00000070: 8b7e 0fbf 3abd 26be bb91 13be b2e9 683f
00000080: c1cb 433f 0c8e 0b3e e232 f33e e99a 303e
00000090: 6fa3 6abf 58c3 3a3d e56d 80bf ba23 a2bd
000000a0: e58f ae3e dc39 e1ba 5b5e f53e 1249 81be
000000b0: 357b 23bf 4acf b23e e359 e03e 4279 63bf
000000c0: 0181 553e 7986 f53b 78ba a23e 51a0 0e3f
000000d0: 964c c0be 2513 b53e 0520 b8be 7051 253f
000000e0: ed54 57bf 65db ea3e cef9 94be 786a 473f
000000f0: b7e8 0abf 0aef 16bf 03ed c8be f22d cc3e
00000100: fb40 ffbd 8104 393f 773f 673e 7c3a 1f3f
00000110: 4159 153f 13d1 86be cbea 1b3f 0125 5c3f
00000120: ee44 9abe d7d2 113e cb1d ddbe 1e3d 5d3e
00000130: fd81 5c3f 6f84 283e 81a1 f1be 8358 f73d
00000140: bed2 bbbe 3916 84be 3322 973e 52bd 583e
00000150: b185 da3d d88f 6dbe e9a9 013f 1ab6 843c
00000160: 9bc6 373e 23de d7be b5b8 ea3e ebcf e2be
00000170: 6c05 473e 616f d4bd 1d24 f1be 35d4 0ebd
00000180: 2b9b 51be cec6 0d3e 1768 f63e 7223 7c3e
00000190: bfdd c23b 7095 a6be f951 463e f3dc 1c3e
000001a0: c83a 433e 13cf 9c3d 0feb 3dbe 98d1 afbe
000001b0: 4ddd 273e cc4f afbc 6750 733e 228a 15be
000001c0: 80c3 833e cd7d 203f 7d1f d63e 837a 9d3e
000001d0: 4b46 91bd c8bc 12be 8b02 29bf 6ef6 403f
000001e0: ad7c c63d a5cc 3b3e ae8a a43e 7a6f f13e
000001f0: 6077 f13c cc4a 88be a8f6 1d3f a916 2abd
00000200: 08b6 2ebd 28c6 9abe c639 963e 88a2 67bd
00000210: 91f1 b03e 760b ac3e c1d2 8f3e 6683 89be
00000220: 996e 4a3e 7cf6 f3be 1bc7 87be 6b22 08bf
00000230: 2e20 083e ea6e eb3d 3950 c3bd d3ec cdbe
00000240: f3ea 943f f273 7dbc ef36 fb3d e9b8 0cbf
00000250: 3122 233e 80f9 60be a1e6 783f 93fb 73be
00000260: 25d8 de3e 2c8e 57bd 2791 10bf c815 aa3e
00000270: 97d4 5bbf 406b cbbe 2d38 40bf 5991 58bf
00000280: 52bf 893f 6028 f23d 6774 6a3f ec72 523e
00000290: 0d50 c13e 2bd8 a53c fd4b b0bd e7aa f33e
000002a0: cc74 29bf f0c8 3dbf 8c79 cc3b be38 443f
000002b0: c4b6 24bf 1ffc 17bf 15d5 adbd 3124 703f
000002c0: 3640 943d de20 2d3e ea2a a73e ca8f 4bbf
000002d0: b778 fcbd e2fe a2bd 3764 b2be d33b f33e
000002e0: 17c8 06bf c90b 30be 6c32 533e 3dab 173f
000002f0: 28b7 b3bc 4878 61be be62 1bbd a710 8abe
00000300: d902 e5bc 68d3 3ebf 39f7 e03e bc1b 9f3f
00000310: 386c 26bd 34a2 e5bc 7505 a83d 0c36 ff3e
00000320: 7b07 ffbc 0715 1f3f 9b6b e33d 1da3 553e
00000330: 0898 fc3d 75d4 0c3e 7fac c23e 4759 1f3f
00000340: 0b62 f3be 719f 82bd 360b a83e 1c49 433f
00000350: 3ad2 6f3e 7090 64bf 2944 a1bd 3ef1 fc3e
00000360: 4c99 92be 36c0 cabd edfb 8b3d 34d9 71be
00000370: 4edd 2ebe abff 003e b3df 0dbe 9306 aa3d
00000380: 637c cbbd e099 b5bd b75f 803e 25bb 80be
00000390: cb46 a83e 6d11 acbd ffd9 5cbe 30e9 0fbc
000003a0: 2765 bbbe 7047 a93e fe49 843d 83d1 b1be
000003b0: 3769 f0be d1b5 c5bc 166a 8d3e 877b 04bf
000003c0: aec8 34bc 1907 f9bc 0f8f 68be bf34 4e3e
000003d0: fb73 d8ba 8f7a de3e 1534 61be 8684 02be
000003e0: 7a2a b9be 6915 0f3f 6694 403e 0a3d 083e
000003f0: 00e9 0a3e bd46 923d 804e 2cbe 2ad3 33be
0.44497177 0.06925891 0.1543383 -0.81356627 0.28533423 -0.14099225 0.57407546 -0.16581085
0.24644348 0.57372373 -0.46949333 -0.58508873 -0.19398223 -0.34060523 -0.5204066 -0.36451223
0.30485147 0.19312906 0.7178562 -0.43627447 0.7221656 0.5418003 -0.1545858 -0.09835099
-0.27897376 -0.8437893 0.27217782 0.9304396 -0.56052464 -0.16283122 -0.1441106 0.9098159
0.7648278 0.13628405 0.47499758 0.17246594 -0.9165563 0.04559645 -1.0033537 -0.079169706
0.34094158 -0.0017183381 0.4792355 -0.2525106 -0.63859874 0.34923774 0.43818578 -0.888569
0.20849992 0.007492837 0.3178289 0.55713373 -0.3755843 0.3536617 -0.3596193 0.6457739
-0.8411396 0.4587051 -0.29096836 0.77896833 -0.54261345 -0.58958495 -0.39243326 0.39878803
-0.12463566 0.722725 0.22582804 0.62198615 0.58339316 -0.26331386 0.6090514 0.85993963
-0.30130714 0.14240585 -0.43186793 0.21605346 0.86135846 0.1645677 -0.4719353 0.12077429
-0.3668422 -0.25798205 0.2951828 0.2116597 0.10670031 -0.23199403 0.5064989 0.016200114
0.17946856 -0.42161664 0.45844045 -0.44299254 0.19435662 -0.10372806 -0.47097865 -0.034870345
-0.20469348 0.13845369 0.4812629 0.24622896 0.0059468444 -0.32535887 0.19367208 0.1531866
0.19065392 0.07656684 -0.18546699 -0.34339595 0.16393013 -0.021400355 0.2376114 -0.14603475
0.25735092 0.62691957 0.418209 0.30757532 -0.070934854 -0.14329827 -0.66019505 0.7537602
0.09691749 0.18339784 0.32137054 0.47155362 0.029475868 -0.26619565 0.6170449 -0.041525517
-0.042654067 -0.30229306 0.29340953 -0.056551486 0.345593 0.33602494 0.2809048 -0.26858062
0.19768752 -0.4764899 -0.26519093 -0.5317752 0.13293526 0.114957646 -0.09536786 -0.40219745
1.1634201 -0.015469538 0.12266337 -0.5496965 0.15931012 -0.21970177 0.9722691 -0.23826437
0.4352428 -0.05262582 -0.56471485 0.33219743 -0.8587126 -0.39730263 -0.7508572 -0.8459678
1.0761511 0.11824107 0.91583866 0.20551652 0.37756386 0.020244678 -0.086082436 0.47591326
-0.6619384 -0.7413473 0.0062400755 0.7664908 -0.6434138 -0.5936908 -0.08487908 0.93805224
0.0723881 0.16907069 0.32649928 -0.7951628 -0.12327712 -0.07958771 -0.34842083 0.4750658
-0.5264906 -0.17191996 0.20624703 0.59245664 -0.021937922 -0.2201854 -0.037935965 -0.2696583
-0.02795546 -0.7454133 0.43938616 1.2430339 -0.04063055 -0.028031446 0.08204166 0.49845922
-0.031131497 0.6214146 0.111045085 0.20863004 0.12333685 0.13752921 0.3802223 0.622456
-0.47535738 -0.06378067 0.32821053 0.7628343 0.23420039 -0.89282894 -0.07874329 0.49402803
-0.2863258 -0.098999426 0.068351604 -0.23618013 -0.17076609 0.1259753 -0.13854866 0.08302035
-0.09935834 -0.0886724 0.25073025 -0.2514278 0.3286651 -0.08401761 -0.21567534 -0.008783624
-0.3660061 0.33062315 0.064594254 -0.34730157 -0.46955273 -0.024134548 0.2762 -0.5175099
-0.011034174 -0.030398892 -0.22710823 0.20137309 -0.0016514057 0.4345288 -0.21992524 -0.12745866
-0.3616522 0.55892044 0.1880661 0.13304535 0.13565445 0.071423985 -0.1682682 -0.17561021

model/conv2d_4/BiasAdd_bias_fused_bn f4 [216]
00000000: 24c4 01bf f8c1 3bbf 7893 eebe ec74 1a3f
00000010: 5f54 90bf d4da c8be b6dd 9abf 15b1 583d
00000020: a038 04be d58e 82be 4c15 a13c 2fff 133f
00000030: 1016 a9be 4cf2 29bf 8f5f b4bf 9740 98be
00000040: c41c 333c cf7d b7be 902a 653c 0a6f 03bf
00000050: d41e bdbe 57aa 5abd 420d 18bf 4239 2dbf
00000060: b870 94be 8aec c5be 9394 17bf d3b0 163f
00000070: 0e04 5a3e bc1d b6be 6468 b93e eeae 18bf
00000080: 9865 8cbe 04d6 e6bd d3ff a3bf 1ebc 84bf
00000090: d037 47bf e32f 273f d02f 9cbe 5b30 b53e
000000a0: 897a 303e 6f49 c1be 1f3a 00bf b1f6 82bf
000000b0: 0038 66bf 6c56 0f3f 2a80 43be 558f ddbe
000000c0: fc83 47bd 4fcb 09bf d2a1 32bf 16bc 2bbf
000000d0: 68f6 a1bf 5542 06bf 1846 bcbd 671e 09bf
000000e0: 203e 75bf ee11 0b3e eff3 cebe 67b4 e9be
000000f0: db1b 82be 0909 c5bd 8953 d2be e95c dd3e
00000100: 68a1 29bb 7c30 e3be 9464 30bf 263f 03be
00000110: 014c 21bf 208a c73e aa31 ffbe 8104 cfbd
00000120: 1491 6ebf b454 2dbf e912 99be 752c ecbe
00000130: c850 29bf a4d9 82bf 7823 66bf f346 a2be
00000140: e2e4 63bf a90c 2bbf 2a2b a7be 3f4c b03e
00000150: da85 573f ca5a f8be 5b09 a33d 2b1d 9dbe
00000160: 886b d13e 92d2 bc3d aee8 8bbd 4932 2ebf
00000170: fdb4 9abe a101 583f 4fd9 183e 7ec4 fcbe
00000180: 377e f63d fb62 36bf cf5d 36bf 7efc 6abf
00000190: c791 27bf ec4b 0bbf 7f6e 89be 40cd f73d
000001a0: 2020 293b 540a 8ebf 1063 abbe 3890 6fbe
000001b0: b08a 36bf 10d1 acbe 82e8 03bf 10d9 58bf
000001c0: 32e9 acbe 4ff1 1cbf eb9b 303f bcd9 1fbf
000001d0: 61ff b4be 4016 d83e cbfb 2dbf 0196 293f
000001e0: 565d 34bf f97e 85bd 3960 c2be d578 25bf
000001f0: ed6d 56bf bf5b 48bf ce4c 36bf 054c 1bbf
00000200: e040 ebbd 2965 54bf cc8f 233e dce5 07bf
00000210: 2c99 cdbe b8b2 233e 8d23 8abd 3283 ccbe
00000220: c421 c0be 710c 02bf ed52 11bf 34ff 01bf
00000230: cc5c 9ebe 2709 8ebf f4ee ecbd 2192 443f
00000240: bc7a 6bbf c3e2 953e 4be3 63bf c7c8 20bf
00000250: 3eaa eabe 9f91 983f 3e67 f4be 9d32 02bf
00000260: ebd1 16bf 06a7 66be 5dba 333f 4ccd 1fbf
00000270: 573d 3dbf 3fcd dabe fcb0 3ebe 94c2 6b3e
00000280: ca08 9ebe f8bf 493d afbd 10bf 00ed b83d
00000290: 2e7e a8be 68e7 b7be 77be 11bf 8648 fcbe
000002a0: 0cc0 68bd 9018 24be 8410 5fbf 182c 6abf
000002b0: 26e2 b3be 15dc f4be e1b6 5ebf 55c1 86be
000002c0: 5924 0d3f c512 17bf 99af 2ebf 65d6 eabd
000002d0: 8985 a2be ae64 133f 8498 73be 3b99 42bf
000002e0: 1e3e 63be 4a41 ffbe 8573 22bf 8c34 e03d
000002f0: 697e 9e3e 606c 513f e731 7ebe cf01 c7be
00000300: bf33 92bf 38ab dabe d9de 62bf 22c9 43bf
00000310: d9c0 67bf 5665 24bf 8ab3 033d d2fb 87bf
00000320: e5dc f1bc dae7 b6be c7cf 39bf 8480 ccbe
00000330: 902c 8c3e ca0d 05bf f4d0 f5be 70cd 973e
00000340: 4806 b8be a6b4 e73d 01aa eabd 5aaf 37bf
00000350: 2435 a0be b523 593d ca89 ddbe b4ab 00bf
-0.5068991 -0.7334285 -0.46596885 0.6033466 -1.1275748 -0.39229453 -1.2098911 0.052903254
-0.12912226 -0.25499597 0.019663475 0.57811254 -0.33024645 -0.6638534 -1.4091662 -0.29736778
0.010932151 -0.35838172 0.0139871985 -0.5134131 -0.36937582 -0.053385105 -0.5939523 -0.67665493
-0.28992248 -0.38657027 -0.5921108 0.5886356 0.21290609 -0.3556956 0.36212456 -0.5964192
-0.2742126 -0.11271289 -1.2812446 -1.0369909 -0.7781954 0.65307444 -0.30505228 0.35388455
0.17234243 -0.37751338 -0.50088686 -1.0231534 -0.899292 0.55991244 -0.1909186 -0.43273416
-0.048709854 -0.5382585 -0.6977817 -0.6708387 -1.2653322 -0.52444965 -0.09193057 -0.53562015
-0.9579792 0.13581058 -0.40420482 -0.4564545 -0.25411877 -0.09620864 -0.41079357 0.43234947
-0.002588356 -0.44372928 -0.6890347 -0.12817058 -0.630066 0.3897257 -0.49842578 -0.10108281
-0.9319012 -0.6770737 -0.2989724 -0.46127668 -0.6613889 -1.0222669 -0.8989787 -0.31694755
-0.8902112 -0.6681619 -0.3265012 0.3443317 0.84188616 -0.48506767 0.07960769 -0.30686316
0.40902352 0.092198506 -0.068314895 -0.6804548 -0.30216208 0.84377486 0.14926647 -0.49368662
0.12035792 -0.7124478 -0.7123689 -0.9179152 -0.65456814 -0.5441272 -0.26842114 0.12099695
0.0025806502 -1.1096902 -0.33474016 -0.23394859 -0.7130537 -0.33753252 -0.51526654 -0.8470621
-0.33771664 -0.6130571 0.6898791 -0.6244161 -0.3535109 0.42204475 -0.6796233 0.6624451
-0.7045492 -0.06518359 -0.37964037 -0.646375 -0.83761483 -0.78264993 -0.71210945 -0.6066287
-0.11486983 -0.8296686 0.15972823 -0.5308511 -0.40155923 0.15986145 -0.06745062 -0.39943844
-0.3752576 -0.50800234 -0.5676716 -0.50780034 -0.30930173 -1.1096543 -0.11569014 0.76785475
-0.9198415 0.29274568 -0.89018697 -0.6280636 -0.4583301 1.191944 -0.47735018 -0.5085848
-0.5891406 -0.22524652 0.7020624 -0.62422633 -0.7392172 -0.42734715 -0.18622202 0.23023444
-0.3086608 0.04925534 -0.56539434 0.09029579 -0.32908767 -0.35918736 -0.5693125 -0.4927408
-0.056823775 -0.16024995 -0.87134576 -0.9147353 -0.35133475 -0.4782416 -0.869978 -0.26319376
0.5513359 -0.59013015 -0.6823669 -0.11466674 -0.31742504 0.575755 -0.23788649 -0.7601506
-0.22191665 -0.498545 -0.6345752 0.109475225 0.30955818 0.8180599 -0.24823724 -0.38868567
-1.1422042 -0.42708755 -0.8862129 -0.7647878 -0.9052864 -0.64217126 0.032153644 -1.0623724
-0.029524276 -0.35723764 -0.7258267 -0.399418 0.27377748 -0.51974165 -0.4801098 0.29648924
-0.35942292 0.11313753 -0.11458207 -0.7175194 -0.31290543 0.05301257 -0.43269187 -0.50262

model/conv2d_3/BiasAdd_weights_fused_bn f4 [72, 72, 3, 3]
00000000: 3398 25bc c6bb a93c 11b8 5f3c 9830 da3c
00000010: 1e69 18bb b628 1d3d b565 3a3c 86d8 843c
00000020: 3676 18bb 9d01 f9bd 77fd dbbc a8a5 143c
00000030: 4695 33bd 18d6 50bc e628 ed3b c69a 02bd
00000040: 141a 1b3d 96f2 e73c 6839 0c3d c22b c33c
00000050: 9dbc ea3c 429d 4abc 597c b13c 2eb6 603d
00000060: 436d 97bd 1246 95bc 9db6 d93c e896 86bc
00000070: 578b b7bd 149b 81bd b0f4 c43b 9266 17ba
00000080: 485d 1dbd ca1a 83bd e80b 8ebd d733 abbd
00000090: 38e5 1ebd 2381 17bd 456f 09bd 1a21 ed3c
000000a0: df24 2b3c 9f1c 423c f462 7fba a969 af3c
000000b0: b008 b03d b28f 3cbd 25e3 59bd 8cbe 6cbb
000000c0: 4d4d 6ebb f4bd a53b 08bf 71bb e859 d43c
000000d0: 610d f7bc 7452 e73c 0aab a23b 1888 123b
000000e0: b229 0dbc eb2d 2a3d 2659 903d 6768 8dbc
000000f0: 45b1 f9bb e6d5 2a3d 5116 86bc ce7a a8bd
00000100: fcb0 a2bc 1c6b 89bd 7245 f9bc 5981 283d
00000110: 2ecc 413c 8849 6fbb 0669 313b 1f96 a6bc
00000120: 47ea 86bd ca39 17bd 3cad f6bb 2c1f 163d
00000130: 9514 143d 0209 043d af83 1c3d f2ec 88bc
00000140: d1c5 903b 5aaf 83bd f969 d5bd 39bb 85bd
00000150: 6a15 94bd 72f6 21bd 939b 66bc 49b0 dfbc
00000160: 746b 4dbc ffc3 e1bb a64b 403d 8fc7 803b
00000170: 8c3e f33c 1099 0dbd 0c62 50bd 8e7d 31bd
00000180: 22e4 36bd c70b f9bc 8df7 47bd feb6 b33c
00000190: 7eb4 803c d156 213c 9a06 99bc e862 fc3b
000001a0: 6f16 0e3c 3c6b dabc b5ed 0dbb 2e89 04bd
000001b0: e358 0c3d d1b0 cabc 4afc cabb f7de c73c
000001c0: ef85 4ebd 7350 953c b9fd 1d3d d0d9 89bc
000001d0: 7521 c5bc ac9c bfbd 3ba1 e8bc cb86 4fbd
000001e0: 6be9 0f3d 43e4 303d b312 123d fbb1 643c
000001f0: e4c4 1d3d d389 f23b d5d1 9e3d 7349 833d
00000200: 3c71 ad3a 55ec 65bc 8db3 033d d339 283c
00000210: a9f9 10bc 597e ae3c ca62 0ebd f3f1 8ebd
00000220: cc7c 22bd 6c3b a43d 4c3d dbbc d458 03bb
00000230: a72d 3a3d e035 3b3b d23a 043d 9373 393d
00000240: ef40 933c 5a9c 233d b7df 343d 690a 0f3d
00000250: f926 263c 6775 c23b ecd5 48bd a987 79bc
00000260: e77d 49bc 06a2 c53c 6fea a83c 3749 d7bb
00000270: 24ac 2fbc 6e96 10bd 0629 25bd 79c1 d53c
00000280: 57e8 b239 81ba 80bd cfee 61bc 4dd8 393d
00000290: 7b71 0e3d 974e bf3c 5d4d 203d 7bfd 873d
000002a0: c9cb f33c 4959 613d 0590 a43c a53e 543d
000002b0: 3e91 a33d 56db c23b d8eb 6abc 9221 b03c
000002c0: d76a 273c 58ee 20bd 79f5 e6bb 527d 16bd
000002d0: 9ad1 01bd 2037 70bc d8f4 75bd 23cc 19bd
000002e0: 1426 0abd bd6c 77bd 2894 a7bd 4695 a6bd
000002f0: e9a3 aebd 836d a53c daf5 c1bc 9c75 89ba
00000300: 54b3 8cbc 458f e3bc d104 bfbc c7c1 d9bc
00000310: 6d65 e4bc dcfb dfbc 2a78 b3bc 8445 113d
00000320: 63bb a6bc 4669 4ebc e650 02bc 1654 0cbd
00000330: 37ac 05bd 2aa2 a23c e165 c1bd 6fcc 143d
00000340: d23c 8f3d 012e 613d 2212 7ebb 65e0 f23c
00000350: 4585 17bc 7cf5 593c e4e4 ebbc eb96 c43c
00000360: a315 6bbd ac45 9bbd fcdc 95bd 9013 acbc
00000370: f40c 15bd 09a1 043d 3070 8d3c f51f 55bb
00000380: 372a ab3d c35d 5b3d d572 383d 9f99 b23d
00000390: dca1 443d f611 0b3a cc4d aaba a71d 06bd
000003a0: 3b48 c8bc 0fc9 1ebd dcbb a43b b5f0 0a3d
000003b0: 9a76 59bc 8e74 84bb bc93 9d3c 1e57 f73a
000003c0: 653e a23c 7ec7 123d 4cd4 f43b 95d6 943d
000003d0: d73f ea3c 2c70 083c 1634 70bc 1c3d 1c3d
000003e0: db27 e33c 95ad a0bd 6ef3 14bd 4fa1 86bc
000003f0: 0712 bebd 5daa 0cbd ee46 ebbc 42b0 7cbc
-0.010107088 0.02071942 0.013654725 0.0266345 -0.0023256014 0.038368903 0.011376788 0.016216528
-0.0023263819 -0.12158511 -0.02685426 0.009072699 -0.04384353 -0.012746356 0.0072375415 -0.031885885
0.037866667 0.028313916 0.034234434 0.023824576 0.028654391 -0.012366595 0.021665739 0.05486124
-0.07393887 -0.018221889 0.026576335 -0.01642938 -0.08962124 -0.06328407 0.0060106143 -0.0005775477
-0.038419038 -0.06401594 -0.06935865 -0.08359497 -0.03879282 -0.03698839 -0.03355338 0.028946448
0.0104458025 0.011847644 -0.0009742223 0.021412687 0.08595407 -0.046035476 -0.053195138 -0.0036124317
-0.0036361993 0.0050580446 -0.0036887545 0.025921777 -0.030157747 0.028237559 0.004964237 0.002235895
-0.008615898 0.041547697 0.07048254 -0.017261697 -0.007620009 0.041707896 -0.016368063 -0.08226548
-0.019859783 -0.067098826 -0.030428622 0.04113898 0.011828465 -0.0036512334 0.0027070655 -0.020335255
-0.065876536 -0.036920346 -0.0075279754 0.03665082 0.03615244 0.032235153 0.03821152 -0.016714547
0.004418113 -0.0642993 -0.10420603 -0.065298505 -0.07230647 -0.03954167 -0.014075178 -0.027305739
-0.012537826 -0.0068898196 0.046947144 0.0039300392 0.02969291 -0.0345698 -0.050874755 -0.04333263
-0.04465116 -0.030401124 -0.048820067 0.021937843 0.015711065 0.009847359 -0.018679906 0.00770222
0.008672341 -0.026662461 -0.0021656577 -0.032357387 0.034264456 -0.024742516 -0.006194626 0.02439831
-0.050420698 0.018226838 0.038572047 -0.016827494 -0.024063805 -0.09356055 -0.028397193 -0.050665658
0.035134714 0.043186437 0.035662364 0.0139584495 0.038517848 0.007401684 0.07754866 0.06410494
0.0013232599 -0.014033397 0.032153655 0.010267693 -0.008848586 0.021300482 -0.03476218 -0.06979742
-0.039669797 0.08019146 -0.026762627 -0.002004196 0.045453694 0.0028566048 0.032282658 0.045276236
0.017975299 0.03994403 0.044158664 0.034922037 0.010141128 0.0059344056 -0.049032137 -0.015230098
-0.012298084 0.02412511 0.0206196 -0.006570007 -0.010722194 -0.03529971 -0.040322326 0.026093232
0.00034123912 -0.06285573 -0.013789847 0.045372296 0.034776192 0.023352904 0.03913628 0.066401444
0.029760258 0.05501679 0.020088205 0.051817555 0.07986687 0.005946557 -0.014338456 0.021500383
0.010218344 -0.039289802 -0.0070483056 -0.03674061 -0.031694032 -0.01466158 -0.060047954 -0.037548196
-0.03372772 -0.060406435 -0.081825554 -0.081339404 -0.08527357 0.02019382 -0.023676801 -0.0010487321
-0.017175354 -0.027778277 -0.023317726 -0.026581658 -0.027880395 -0.027341776 -0.021907885 0.035466686
-0.020353025 -0.012598341 -0.007953858 -0.034259878 -0.03263494 0.019852716 -0.0944326 0.036327776
0.069940224 0.054975513 -0.0038768132 0.029648015 -0.0092480825 0.013303157 -0.028795667 0.023997745
-0.05739368 -0.07581648 -0.0731754 -0.021005422 -0.036389306 0.032380138 0.01726541 -0.0032520269
0.08357661 0.053556215 0.045031387 0.08720707 0.048005924 0.00053051056 -0.0012993156 -0.032743122
-0.024448505 -0.038765963 0.0050272774 0.033920962 -0.013272906 -0.0040422147 0.019235484 0.0018870567
0.019805143 0.03583478 0.007471597 0.07267491 0.028594894 0.008327525 -0.014660856 0.038144216
0.027728966 -0.07845608 -0.036364965 -0.01643434 -0.09280782 -0.03434216 -0.028720345 -0.0154228825

model/conv2d_3/BiasAdd_bias_fused_bn f4 [72]
00000000: e054 6c3e 6887 593d 08da ff3e cdc6 be3e
00000010: 1a89 48bf ac19 b6bd 464c 2f3e cb74 063f
00000020: 3882 743f b7e8 7ebe e09c 2bbe 1d34 9bbf
00000030: 7628 c53e 638f debe cc66 173d 60ec 7a3c
00000040: 1e09 2bbf ea5c 17bf 5e26 bd3e 1f15 1d3f
00000050: 261f 263e ca43 1dbe 2de1 323f 8875 303e
00000060: 74ba c53d e36c abbe 8f43 aabe 86a0 8a3e
00000070: 4e85 0e3f e53c 23bf 7e02 40bf 9342 9e3f
00000080: 6860 ddbe cc71 113f 0f33 04bf 94b0 19be
00000090: 3c23 a5be 3d69 7cbe a264 8c3e 1857 da3e
000000a0: 8dc8 9ebe 3e16 92be 7277 25be fa88 1dbf
000000b0: 6933 b2be a836 aa3d f60c 1dbe 4922 f7be
000000c0: 46e9 603e ae9a b83e d098 403f 866f 333f
000000d0: d842 573e a261 32be d592 3bbf 6e32 6d3f
000000e0: 14cd c93d c575 343f b192 ecbe ed37 e1be
000000f0: c43d 57bf bba8 ea3e 1444 73bf aa52 c13e
00000100: 4267 a7be 09a5 2fbf 4000 1b3f a02d f0be
00000110: 62d5 b4be 344e a93e 677c e03e d8f8 c9be
0.23079252 0.05310765 0.49971032 0.37261048 -0.783342 -0.08891615 0.1711894 0.5252196
0.955112 -0.24893461 -0.16759062 -1.2125279 0.38507432 -0.4346877 0.03696327 0.015315145
-0.66810787 -0.5912615 0.36943334 0.61360353 0.1622282 -0.1535789 0.6987484 0.17232335
0.09654704 -0.3348151 -0.33254668 0.27075595 0.55672157 -0.6376479 -0.750038 1.2364067
-0.43237615 0.56814265 -0.5164041 -0.15008765 -0.32253444 -0.2464952 0.27420527 0.42644572
-0.31012383 -0.28532594 -0.16158846 -0.61537135 -0.34804848 0.08311206 -0.15336975 -0.48268345
0.21963987 0.3605551 0.75233173 0.70092046 0.21021593 -0.17420056 -0.7327092 0.92655075
0.09853569 0.704922 -0.46205667 -0.4398798 -0.8407862 0.45831856 -0.95025754 0.3775838
-0.32695967 -0.686112 0.60547256 -0.4690981 -0.35319048 0.33067477 0.4384491 -0.39447665

model/conv2d_2/BiasAdd_weights_fused_bn f4 [72, 72, 1, 1]
00000000: 76ae 1ebe a58b 383e 5640 debd 02b1 2ebe
00000010: 2353 b2be 2f70 58be cc53 973d d57a a0be
00000020: a2c4 2abc 4b7a 083d ad4f 0a3e e494 023e
00000030: b5fb dbbd 5aa6 8a3d a55f 853e 6169 2bbd
00000040: 1e7f 33be 23c5 043e 2ec0 09bd 9190 b9bd
00000050: 93d7 b8be 8b83 c8bd ad8d 893d c1f7 abbd
00000060: 92d9 903e 12ae 8bbe ee63 edbc 4c27 9cbe
00000070: f809 1ebe 0f29 6e3e 1e52 1cbe 9fbb 14bc
00000080: 7431 843c cba3 bd3e 0940 c03d 160f a2bc
00000090: 1868 fa3d fd21 d8bd 10c6 f73d 0f10 873e
000000a0: 4b8a a33d fde4 2ebe 37e7 bf3b 2f5e 053e
000000b0: 6cea 873e 6186 2cbd 2964 263e eae5 193d
000000c0: 2c71 463d 13ca 2e3e 8f6f 1fbe 6c22 9d3e
000000d0: 7397 1fbe 86ca 70be 1995 71be 966d d53d
000000e0: 7f0f 94bd f035 44bc f238 a1bc 0d0f 56be
000000f0: f8f8 5a3d 4c00 6ebe 3beb 773e 7763 ca3e
00000100: c230 aebe 59e4 4fbe 565a 9d3e 8ec1 8f3c
00000110: 6aa8 acbd b76a bb3c 1f26 6a3e f848 81be
00000120: a511 543e 78ed 9e3d de4e 21bd 1516 423e
00000130: 81c7 a1be d1ce 35bc 90f8 bfbd 76e8 cebe
00000140: 2757 943e c62d 6c3e 9c4b d63a 6b89 e23c
00000150: ed03 8fbe b415 fc3e 099d aabd 0ada 293e
00000160: 60be 05be 2652 5bbe d2bf 81be 663f 66be
00000170: 23ca a43d 88a6 de3d ebf6 893d 7010 fdbe
00000180: df33 37be 3ca2 a13c 4e36 37be 730c 593d
00000190: 5c72 613e 3449 8cbd b13d 4ebe 9735 a8be
000001a0: 9336 073e f1bf afbe 3060 a8be a087 a9be
000001b0: 3f63 8abe 71b1 d53d 877b 7dbe f7c9 bebe
000001c0: 5701 f4bd d6a9 67bd 4625 7f3e c4ca b5bd
000001d0: bcd5 823e d3dc 3b3d 7f50 8bbe 07e7 8f3e
000001e0: 680f fc3c 65fa a53d 467b 3abe b103 c73c
000001f0: 1c7b c3bd 6a9f e5be c8cf 35bc 9f03 4a3c
00000200: acc6 893e d584 813d b752 0ebe b0a0 983e
00000210: ffbb 91be e67f a7be 9079 483e deb3 6e3e
00000220: 33de 62be 62bb afbe dbb1 b3bd c9b5 3c3e
00000230: 439e 6bbe b786 233d 3b33 a4be bbb2 443e
00000240: 79ef 593d d36a d23d b183 0f3e 4c1b 73be
00000250: 846f 47be 6ddd 1d3e a492 50bd 00df 8b3e
00000260: 582d 27be 61d8 fb3d c194 74bd bb5c 473e
00000270: f848 6f3d 7421 db3d 3ab6 48be 6ad1 883d
00000280: b85d b8bd 00de 30ba b4a3 48bd 17f2 713d
00000290: 00f6 233e 6cf6 85bd 03de 753e 359b 293c
000002a0: cd81 f53c c322 5b3e 0430 63be c18b 00bd
000002b0: 66cf 423e 3605 643e 5046 4d3d d878 68bd
000002c0: b8d9 a6bd 2477 503e db57 88be d8a6 e4bd
000002d0: 17ee a53c 3d43 033d d5fc 2abe 3f62 2c3e
000002e0: 7674 9fbe eaf7 913b 4f4f db3c 52d8 953e
000002f0: c261 38be 9054 c7bc ab31 443e 4c03 d3bd
00000300: cd7f 7d3d d4bd 2fbe d681 9cbd e7c2 693c
00000310: 4035 773d 3f9a 06be 9103 3b3e 2bbb cd3c
00000320: e6da 76be 2400 7abd 8210 42bd 7f4e 13be
00000330: 7dfc 94be f473 38bd f225 77be d5f1 6c3d
00000340: 78aa 633e 4b92 a1bd 7e59 81bd 8f26 2f3e
00000350: 2ef7 703e d0be 023e 5e46 bfbe 057a 7f3b
00000360: 9840 ed3c e343 86bd 835b bebe 0398 aebe
00000370: 0d9b 21be 3548 33bf f166 b5be ebae 333e
00000380: 8da9 6d3d 5b2f 7f3c e680 01bf 7f95 babe
00000390: 3355 bb3d 7531 12bf e6e1 96be 7d14 493f
000003a0: 4f5e 9fbd 65ca c8be a70a c6bd 3c4b 8c3e
000003b0: 5eb2 dcbe a15b 32be 78c4 0e3e c531 ed3e
000003c0: f779 c2bd 0e51 9ebe 8d9f d1be 5091 7d3e
000003d0: bb21 a93e 6cca 83bd dd9b e0be 5efd 5b3c
000003e0: a2bc 18bf 7ef1 c93c 76b9 f03e f31f 31be
000003f0: 9b7f 1dbe 9b02 973e b7bc adbe cf75 f33e
-0.15496239 0.1802202 -0.10852115 -0.1705971 -0.34829053 -0.21136545 0.0738903 -0.31343713
-0.0104228575 0.033319753 0.13506956 0.1275211 -0.10741369 0.0677001 0.26049533 -0.041848544
-0.1752896 0.12965827 -0.033630542 -0.09060777 -0.3610197 -0.09790715 0.06716476 -0.08396865
0.28290993 -0.27281243 -0.028978314 -0.3049873 -0.1543349 0.2325785 -0.152657 -0.0090779355
0.016136862 0.37039027 0.09387214 -0.019782584 0.122268856 -0.10553358 0.12098324 0.2637944
0.07985362 -0.1707954 0.0058564204 0.1302421 0.26546037 -0.04212034 0.16249146 0.03757278
0.048447773 0.17069273 -0.155699 0.30690324 -0.15585117 -0.23514757 -0.23592032 0.104212925
-0.07229518 -0.01197575 -0.019680474 -0.20904179 0.05346009 -0.23242301 0.24210827 0.3952901
-0.34021574 -0.20301951 0.30732983 0.017548349 -0.0843056 0.022878034 0.22866105 -0.25250983
0.20709856 0.07760137 -0.039381854 0.18953736 -0.31597522 -0.011096672 -0.093735814 -0.4041173
0.28972742 0.23064336 0.0016349438 0.027653417 -0.27932683 0.49235308 -0.08330733 0.16587082
-0.13060904 -0.21418056 -0.2534166 -0.22485122 0.08046367 0.10871607 0.06736549 -0.49426603
-0.17890881 0.01973068 -0.1789181 0.052990388 0.22016281 -0.068499 -0.20140721 -0.32853386
0.13204412 -0.34326127 -0.32885885 -0.33111286 -0.27028844 0.10434235 -0.24754153 -0.37263462
-0.11914318 -0.056558453 0.24916562 -0.08876565 0.2555369 0.04586489 -0.2720985 0.28105947
0.030769065 0.081043996 -0.18211088 0.024293752 -0.095449656 -0.44848186 -0.011096902 0.012329965
0.26909387 0.06324164 -0.1389874 0.29810095 -0.28463742 -0.32714766 0.19577622 0.23310801
-0.22155075 -0.3432265 -0.087741576 0.1842872 -0.23009591 0.039923396 -0.32070336 0.19208805
0.053206895 0.10274281 0.1401508 -0.23740882 -0.19476134 0.15416498 -0.050921097 0.27318573
-0.16325891 0.122971304 -0.059712175 0.19468968 0.058419198 0.1069974 -0.19600764 0.066805676
-0.090022504 -0.0006746948 -0.048984244 0.059068765 0.1601181 -0.06541142 0.24010472 0.010351946
0.02996912 0.2139998 -0.22186285 -0.03138328 0.19024429 0.22267613 0.050115883 -0.05675587
-0.08146995 0.20357949 -0.26629528 -0.111646354 0.020255132 0.032046545 -0.1669801 0.16834353
-0.3114354 0.0044546025 0.026771216 0.29266602 -0.18006042 -0.024332315 0.19159572 -0.10303363
0.06188946 -0.17162257 -0.07641952 0.01426766 0.060353518 -0.13144778 0.18263079 0.025113663
-0.2410694 -0.06103529 -0.047379024 -0.14385413 -0.29098883 -0.045032457 -0.24135569 0.057847816
0.22232997 -0.07889231 -0.063158974 0.17104553 0.23531792 0.12768102 -0.37358373 0.0038982641
0.028961465 -0.06555917 -0.37179193 -0.3410035 -0.15781803 -0.70032054 -0.354301 0.17547195
0.058023024 0.015575255 -0.5058731 -0.3644218 0.0914711 -0.57106715 -0.29469222 0.7854689
-0.0778166 -0.39216915 -0.096700005 0.2740115 -0.43104833 -0.17417766 0.13942134 0.46327034
-0.09495919 -0.30921215 -0.4094204 0.24762464 0.33033547 -0.06435093 -0.43868914 0.013427107
-0.5966283 0.024651285 0.47016495 -0.17297344 -0.15380709 0.29494175 -0.3393304 0.47550818

model/conv2d_2/BiasAdd_bias_fused_bn f4 [72]
00000000: c02c 0bbc d9f8 973f be50 47be 08d1 d83e
00000010: 3018 483f 5d03 6dbf 5ec6 ec3c 729c dc3e
00000020: 2057 293d 222d 69be 1b18 f63e 8240 1fbe
00000030: 06ca 92bf f223 073f e69d 333e e289 8a3e
00000040: 1aff 38bf ccd1 943f dcbb 91bf bd4d 47be
00000050: 8071 11bf 32fd 703e cee4 9e3f 83dd 92bf
00000060: c4ca cb3e fcb3 9f3d 6e2d 4cbf 66dd 8fbf
00000070: a12c 863f 6dc1 0ebe e423 f83e 2b32 b33e
00000080: e577 e2be 6738 82bd 5aff 0e40 4265 b23f
00000090: 18d3 ab3d 5058 323f 388f 073f c901 26bf
000000a0: 8955 43bf 8f6d 393f 289e 96bc d664 a13f
000000b0: d62b 9b3e a107 21bf 5613 93be a0f4 4e3c
000000c0: b63f cbbe 4eea b6bf b278 333f 7c4b 883e
000000d0: 1e7d ec3e 5e4d 99be 0dfa a9be b6fb 42bf
000000e0: 1f2d 4ebe 226d 5ebe d44b 2fbe 2893 1a3f
000000f0: 2182 f2be 1233 5b3d c007 3bbb 12fd a9bf
00000100: a539 6b3f dcd2 5d3f 78aa 9d3d c709 753f
00000110: 578c 443e 5ee9 773f 4ecc 303f 407f 19bc
-0.008494556 1.1872817 -0.19464394 0.42346978 0.7816191 -0.92583257 0.028903183 0.43088108
0.041342854 -0.22771123 0.48065266 -0.15551952 -1.1467903 0.52789223 0.17540702 0.2705832
-0.72264254 1.1626525 -1.1385455 -0.19463249 -0.5681381 0.23534086 1.2413576 -1.147385
0.39803135 0.07798001 -0.7975682 -1.123944 1.048237 -0.13940974 0.48464882 0.34999213
-0.44232097 -0.06358414 2.2343354 1.3937151 0.08389872 0.69666004 0.5295291 -0.64846474
-0.7630239 0.724328 -0.018385962 1.2608898 0.30306882 -0.62902266 -0.2872569 0.012631565
-0.39697045 -1.4290254 0.7010604 0.2662009 0.46189207 -0.2994184 -0.33198586 -0.7616533
-0.201344 -0.21721318 -0.1711877 0.6038079 -0.47364905 0.0535155 -0.0028538555 -1.3280356
0.91884834 0.8664987 0.0769853 0.95718044 0.1919416 0.96840465 0.69061744 -0.009368718
